Model: "sequential"
_________________________________________________________________
 Layer (type)                Output Shape              Param #   
=================================================================
 conv2d (Conv2D)             (None, 28, 28, 75)        750       
                                                                 
 batch_normalization (Batch  (None, 28, 28, 75)        300       
 Normalization)                                                  
                                                                 
 max_pooling2d (MaxPooling2  (None, 14, 14, 75)        0         
 D)                                                              
                                                                 
 conv2d_1 (Conv2D)           (None, 14, 14, 50)        33800     
                                                                 
 dropout (Dropout)           (None, 14, 14, 50)        0         
                                                                 
 batch_normalization_1 (Bat  (None, 14, 14, 50)        200       
 chNormalization)                                                
                                                                 
 max_pooling2d_1 (MaxPoolin  (None, 7, 7, 50)          0         
 g2D)                                                            
                                                                 
 conv2d_2 (Conv2D)           (None, 7, 7, 25)          11275     
                                                                 
 batch_normalization_2 (Bat  (None, 7, 7, 25)          100       
 chNormalization)                                                
                                                                 
 max_pooling2d_2 (MaxPoolin  (None, 4, 4, 25)          0         
 g2D)                                                            
                                                                 
 flatten (Flatten)           (None, 400)               0         
                                                                 
 dense (Dense)               (None, 512)               205312    
                                                                 
 dropout_1 (Dropout)         (None, 512)               0         
                                                                 
 dense_1 (Dense)             (None, 24)                12312     
                                                                 
=================================================================
Total params: 264049 (1.01 MB)
Trainable params: 263749 (1.01 MB)
Non-trainable params: 300 (1.17 KB)
_________________________________________________________________
Epoch 1/10
  1/215 [..............................] - ETA: 1:01 - loss: 4.2812 - accuracy: 0.
…
