Model: "sequential"
_________________________________________________________________
 Layer (type)                Output Shape              Param #   
=================================================================
 conv2d (Conv2D)             (None, 28, 28, 32)        320       
                                                                 
 batch_normalization (Batch  (None, 28, 28, 32)        128       
 Normalization)                                                  
                                                                 
 max_pooling2d (MaxPooling2  (None, 14, 14, 32)        0         
 D)                                                              
                                                                 
 conv2d_1 (Conv2D)           (None, 14, 14, 16)        4624      
                                                                 
 dropout (Dropout)           (None, 14, 14, 16)        0         
                                                                 
 batch_normalization_1 (Bat  (None, 14, 14, 16)        64        
 chNormalization)                                                
                                                                 
 max_pooling2d_1 (MaxPoolin  (None, 7, 7, 16)          0         
 g2D)                                                            
                                                                 
 conv2d_2 (Conv2D)           (None, 7, 7, 8)           1160      
                                                                 
 batch_normalization_2 (Bat  (None, 7, 7, 8)           32        
 chNormalization)                                                
                                                                 
 max_pooling2d_2 (MaxPoolin  (None, 4, 4, 8)           0         
 g2D)                                                            
                                                                 
 flatten (Flatten)           (None, 128)               0         
                                                                 
 dense (Dense)               (None, 128)               16512     
                                                                 
 dropout_1 (Dropout)         (None, 128)               0         
                                                                 
 dense_1 (Dense)             (None, 24)                3096      
                                                                 
=================================================================
Total params: 25936 (101.31 KB)
Trainable params: 25824 (100.88 KB)
Non-trainable params: 112 (448.00 Byte)
_________________________________________________________________
Epoch 1/10
  1/215 [..............................] - ETA: 1:17 - loss: 4.9815 - accur
…
